//RUN: onnx-mlir --EmitONNXIR --run-torch-pass %s -o=%t >/dev/null && cat %t.onnx.mlir | FileCheck -v %s
module {
  func @main_graph(%arg0: tensor<1x20x48x48xf32>) -> tensor<1x2366xf32> attributes {input_names = ["input"], output_names = ["4"]} {
    %0 = "onnx.Constant"() {value = dense<"…"> : tensor<14x20x5x5xf32>} : () -> tensor<14x20x5x5xf32>
    %1 = "onnx.Constant"() {value = dense<[0.0428983569, 0.0118878707, 0.0388498381, 0.00696203252, 0.0372167826, -0.0291549675, -0.00543981418, 0.0103312507, -0.0291315783, 0.0416992046, 9.41762118E-4, -0.0263105687, 0.0444921143, 2.177330e-02]> : tensor<14xf32>} : () -> tensor<14xf32>
    %2 = "onnx.Conv"(%arg0, %0, %1) {dilations = [1, 1], group = 1 : si64, kernel_shape = [5, 5], onnx_node_name = "Conv_0", pads = [4, 4, 4, 4], strides = [4, 4]} : (tensor<1x20x48x48xf32>, tensor<14x20x5x5xf32>, tensor<14xf32>) -> tensor<1x14x13x13xf32>
//CHECK: [[START:%[^]*]] = torch.constant.int 0
//CHECK: [[END:%[^ ]*]] = torch.constant.int 0
    %3 = "onnx.Flatten"(%2) {axis = 1 : si64, onnx_node_name = "Flatten_1"} : (tensor<1x14x13x13xf32>) -> tensor<1x2366xf32>
//CHECK: torch.aten.flatten.using_ints %8, [[START:%[^]*]], [[END:%[^ ]*]] : !torch.vtensor<[1,14,13,13],f32>, !torch.int, !torch.int -> !torch.vtensor<[1,2366],f32>
//CHECK: [[START:%[^]*]] = torch.constant.int 1
//CHECK: [[END:%[^ ]*]] = torch.constant.int 4
//CHECK: torch.aten.flatten.using_ints %9, %int1_9, %int4_10 : !torch.vtensor<[1,2366],f32>, !torch.int, !torch.int -> !torch.vtensor<[1,2366],f32>
//CHECK: torch.tensor_static_info_cast %10 : !torch.vtensor<[1,2366],f32> to !torch.vtensor<[1,2366],f32>
//CHECK: builtin.unrealized_conversion_cast %11 : !torch.vtensor<[1,2366],f32> to tensor<1x2366xf32>
    return %3 : tensor<1x2366xf32>
  }
}
