//RUN: onnx-mlir --EmitONNXIR --run-torch-pass %s -o=%t >/dev/null && cat %t.onnx.mlir | FileCheck -v %s
module attributes {llvm.data_layout = "e-m:e-p270:32:32-p271:32:32-p272:64:64-i64:64-f80:128-n8:16:32:64-S128", llvm.target_triple = "x86_64-unknown-linux-gnu"}  {
  func @main_graph(%arg0: tensor<1x3x75x75xf32>) -> tensor<f32> attributes {input_names = ["input.1"], output_names = ["15"]} {
    %0 = "onnx.Constant"() {value = dense<"0xDEADBEEF"> : tensor<75x3x3x3xf32>} : () -> tensor<75x3x3x3xf32>
    %1 = "onnx.Constant"() {value = dense<[… > : tensor<75xf32>} : () -> tensor<75xf32>
    %2 = "onnx.Conv"(%arg0, %0, %1) {dilations = [1, 1], group = 1 : si64, kernel_shape = [3, 3], onnx_node_name = "Conv_0", pads = [1, 1, 1, 1], strides = [1, 1]} : (tensor<1x3x75x75xf32>, tensor<75x3x3x3xf32>, tensor<75xf32>) -> tensor<1x75x75x75xf32>
    %3 = "onnx.Constant"() {value = dense<"0xDEADBEEF"> : tensor<38x75x3x3xf32>} : () -> tensor<38x75x3x3xf32>
    %4 = "onnx.Constant"() {value = dense<[… > : tensor<38xf32>} : () -> tensor<38xf32>
    %5 = "onnx.Conv"(%2, %3, %4) {dilations = [1, 1], group = 1 : si64, kernel_shape = [3, 3], onnx_node_name = "Conv_1", pads = [1, 1, 1, 1], strides = [2, 2]} : (tensor<1x75x75x75xf32>, tensor<38x75x3x3xf32>, tensor<38xf32>) -> tensor<1x38x38x38xf32>
    %6 = "onnx.Constant"() {value = dense<"0xDEADBEEF"> : tensor<17x38x7x7xf32>} : () -> tensor<17x38x7x7xf32>
    %7 = "onnx.Constant"() {value = dense<[… > : tensor<17xf32>} : () -> tensor<17xf32>
    %8 = "onnx.Conv"(%5, %6, %7) {dilations = [1, 1], group = 1 : si64, kernel_shape = [7, 7], onnx_node_name = "Conv_2", pads = [1, 1, 1, 1], strides = [2, 2]} : (tensor<1x38x38x38xf32>, tensor<17x38x7x7xf32>, tensor<17xf32>) -> tensor<1x17x17x17xf32>
    %9 = "onnx.MaxPoolSingleOut"(%8) {kernel_shape = [2, 2], onnx_node_name = "MaxPool_3", pads = [0, 0, 0, 0], strides = [2, 2]} : (tensor<1x17x17x17xf32>) -> tensor<1x17x8x8xf32>
    %10 = "onnx.Constant"() {value = dense<"0xDEADBEEF"> : tensor<10x1088xf32>} : () -> tensor<10x1088xf32>
    %11 = "onnx.Constant"() {value = dense<[-0.00859574787, 0.025370162, 0.00614910666, -0.0131458696, -0.0181427132, -0.022160003, -0.0188410394, 0.0217594896, -0.0069691157, 0.00782693177]> : tensor<10xf32>} : () -> tensor<10xf32>
//CHECK: %[[AVAL:int0_35]] = torch.constant.int 0
//CHECK: %[[BVAL:int1_36]] = torch.constant.int 1
//CHECK: torch.aten.transpose.int %28, %[[AVAL]], %[[BVAL]] : !torch.vtensor<[10,1088],f32>, !torch.int, !torch.int -> !torch.vtensor<[1,10],f32>
    %12 = "onnx.Gemm"(%9, %10, %11) {alpha = 1.000000e+00 : f32, beta = 1.000000e+00 : f32, onnx_node_name = "Gemm_5", transB = 1 : si64} : (tensor<1x17x8x8xf32>, tensor<10x1088xf32>, tensor<10xf32>) -> tensor<1x10xf32>
//CHECK: torch.aten.bmm %31, %30 : !torch.vtensor<[1,10],f32>, !torch.vtensor<[1,10],f32> -> !torch.vtensor<[1,10],f32>  
  %13 = "onnx.ReduceMean"(%12) {keepdims = 0 : si64, onnx_node_name = "ReduceMean_6"} : (tensor<1x10xf32>) -> tensor<f32>
    return %13 : tensor<f32>
  }
  "onnx.EntryPoint"() {func = @main_graph, numInputs = 1 : i32, numOutputs = 1 : i32, signature = "[    { \22type\22 : \22f32\22 , \22dims\22 : [1 , 3 , 75 , 75] , \22name\22 : \22input.1\22 }\0A\0A]\00@[   { \22type\22 : \22f32\22 , \22dims\22 : [] , \22name\22 : \2215\22 }\0A\0A]\00"} : () -> ()
}
