//RUN: onnx-mlir --EmitONNXIR --run-torch-pass %s -o=%t >/dev/null && cat %t.onnx.mlir | FileCheck -v %s
module attributes {llvm.data_layout = "e-m:e-p270:32:32-p271:32:32-p272:64:64-i64:64-f80:128-n8:16:32:64-S128", llvm.target_triple = "x86_64-unknown-linux-gnu"}  {
  func @main_graph(%arg0: tensor<1x3x75x75xf32>) -> tensor<1x38x19x19xf32> attributes {input_names = ["input.1"], output_names = ["8"]} {
    %0 = "onnx.Constant"() {value = dense<"…"> : tensor<75x3x3x3xf32>} : () -> tensor<75x3x3x3xf32>
    %1 = "onnx.Constant"() {value = dense<[… > : tensor<75xf32>} : () -> tensor<75xf32>
    %2 = "onnx.Conv"(%arg0, %0, %1) {dilations = [1, 1], group = 1 : si64, kernel_shape = [3, 3], onnx_node_name = "Conv_0", pads = [1, 1, 1, 1], strides = [1, 1]} : (tensor<1x3x75x75xf32>, tensor<75x3x3x3xf32>, tensor<75xf32>) -> tensor<1x75x75x75xf32>
    %3 = "onnx.Constant"() {value = dense<"…"> : tensor<38x75x3x3xf32>} : () -> tensor<38x75x3x3xf32>
    %4 = "onnx.Constant"() {value = dense<[… > : tensor<38xf32>} : () -> tensor<38xf32>
    %5 = "onnx.Conv"(%2, %3, %4) {dilations = [1, 1], group = 1 : si64, kernel_shape = [3, 3], onnx_node_name = "Conv_1", pads = [1, 1, 1, 1], strides = [2, 2]} : (tensor<1x75x75x75xf32>, tensor<38x75x3x3xf32>, tensor<38xf32>) -> tensor<1x38x38x38xf32>
    %6 = "onnx.MaxPoolSingleOut"(%5) {kernel_shape = [2, 2], onnx_node_name = "MaxPool_2", pads = [0, 0, 0, 0], strides = [2, 2]} : (tensor<1x38x38x38xf32>) -> tensor<1x38x19x19xf32>
//CHECK: %int[[DIM:[^ ]*]] = torch.constant.int 3
//CHECK: %true = torch.constant.bool true
    %7 = "onnx.Softmax"(%6) {axis = 3 : si64, onnx_node_name = "Softmax_3", onnx_opset = 9 : si64} : (tensor<1x38x19x19xf32>) -> tensor<1x38x19x19xf32>
//CHECK: torch.aten._softmax %20, %int[[DIM:[^ ]*]], %true : !torch.vtensor<[1,38,19,19],f32>, !torch.int, !torch.bool -> !torch.vtensor<[1,38,19,19],f32>
    return %7 : tensor<1x38x19x19xf32>
  }
  "onnx.EntryPoint"() {func = @main_graph, numInputs = 1 : i32, numOutputs = 1 : i32, signature = "[    { \22type\22 : \22f32\22 , \22dims\22 : [1 , 3 , 75 , 75] , \22name\22 : \22input.1\22 }\0A\0A]\00@[   { \22type\22 : \22f32\22 , \22dims\22 : [1 , 38 , 19 , 19] , \22name\22 : \228\22 }\0A\0A]\00"} : () -> ()
}
